(torch) root@sruqqkkyfoicctbj-snow-8cfb8684f-79jpx:/data/coding# /data/miniconda/envs/torch/bin/python /data/coding/mllm/train.py
Using a slow image processor as `use_fast` is unset and a slow processor was saved with this model. `use_fast=True` will be the default behavior in v4.52, even if the model was saved with a slow processor. This will result in minor differences in outputs. You'll still be able to use a slow processor with `use_fast=False`.
VLM(
  (vision_model): SiglipModel(
    (text_model): SiglipTextTransformer(
      (embeddings): SiglipTextEmbeddings(
        (token_embedding): Embedding(256000, 768)
        (position_embedding): Embedding(64, 768)
      )
      (encoder): SiglipEncoder(
        (layers): ModuleList(
          (0-11): 12 x SiglipEncoderLayer(
            (layer_norm1): LayerNorm((768,), eps=1e-06, elementwise_affine=True)
            (self_attn): SiglipAttention(
              (k_proj): Linear(in_features=768, out_features=768, bias=True)
              (v_proj): Linear(in_features=768, out_features=768, bias=True)
              (q_proj): Linear(in_features=768, out_features=768, bias=True)
              (out_proj): Linear(in_features=768, out_features=768, bias=True)
            )
            (layer_norm2): LayerNorm((768,), eps=1e-06, elementwise_affine=True)
            (mlp): SiglipMLP(
              (activation_fn): PytorchGELUTanh()
              (fc1): Linear(in_features=768, out_features=3072, bias=True)
              (fc2): Linear(in_features=3072, out_features=768, bias=True)
            )
          )
        )
      )
      (final_layer_norm): LayerNorm((768,), eps=1e-06, elementwise_affine=True)
      (head): Linear(in_features=768, out_features=768, bias=True)
    )
    (vision_model): SiglipVisionTransformer(
      (embeddings): SiglipVisionEmbeddings(
        (patch_embedding): Conv2d(3, 768, kernel_size=(16, 16), stride=(16, 16), padding=valid)
        (position_embedding): Embedding(196, 768)
      )
      (encoder): SiglipEncoder(
        (layers): ModuleList(
          (0-11): 12 x SiglipEncoderLayer(
            (layer_norm1): LayerNorm((768,), eps=1e-06, elementwise_affine=True)
            (self_attn): SiglipAttention(
              (k_proj): Linear(in_features=768, out_features=768, bias=True)
              (v_proj): Linear(in_features=768, out_features=768, bias=True)
              (q_proj): Linear(in_features=768, out_features=768, bias=True)
              (out_proj): Linear(in_features=768, out_features=768, bias=True)
            )
            (layer_norm2): LayerNorm((768,), eps=1e-06, elementwise_affine=True)
            (mlp): SiglipMLP(
              (activation_fn): PytorchGELUTanh()
              (fc1): Linear(in_features=768, out_features=3072, bias=True)
              (fc2): Linear(in_features=3072, out_features=768, bias=True)
            )
          )
        )
      )
      (post_layernorm): LayerNorm((768,), eps=1e-06, elementwise_affine=True)
      (head): SiglipMultiheadAttentionPoolingHead(
        (attention): MultiheadAttention(
          (out_proj): NonDynamicallyQuantizableLinear(in_features=768, out_features=768, bias=True)
        )
        (layernorm): LayerNorm((768,), eps=1e-06, elementwise_affine=True)
        (mlp): SiglipMLP(
          (activation_fn): PytorchGELUTanh()
          (fc1): Linear(in_features=768, out_features=3072, bias=True)
          (fc2): Linear(in_features=3072, out_features=768, bias=True)
        )
      )
    )
  )
  (llm_model): Qwen2ForCausalLM(
    (model): Qwen2Model(
      (embed_tokens): Embedding(151936, 896)
      (layers): ModuleList(
        (0-23): 24 x Qwen2DecoderLayer(
          (self_attn): Qwen2Attention(
            (q_proj): Linear(in_features=896, out_features=896, bias=True)
            (k_proj): Linear(in_features=896, out_features=128, bias=True)
            (v_proj): Linear(in_features=896, out_features=128, bias=True)
            (o_proj): Linear(in_features=896, out_features=896, bias=False)
          )
          (mlp): Qwen2MLP(
            (gate_proj): Linear(in_features=896, out_features=4864, bias=False)
            (up_proj): Linear(in_features=896, out_features=4864, bias=False)
            (down_proj): Linear(in_features=4864, out_features=896, bias=False)
            (act_fn): SiLU()
          )
          (input_layernorm): Qwen2RMSNorm((896,), eps=1e-06)
          (post_attention_layernorm): Qwen2RMSNorm((896,), eps=1e-06)
        )
      )
      (norm): Qwen2RMSNorm((896,), eps=1e-06)
      (rotary_emb): Qwen2RotaryEmbedding()
    )
    (lm_head): Linear(in_features=896, out_features=151936, bias=False)
  )
  (linear1): Linear(in_features=3072, out_features=896, bias=True)
  (linear2): Linear(in_features=896, out_features=896, bias=True)
)
模型参数量为：3557120
成功加载tokenizer和processor !
{'loss': 5.339, 'grad_norm': 3.273648500442505, 'learning_rate': 9.895732559389445e-05, 'epoch': 0.01}                                                   
{'loss': 4.6898, 'grad_norm': 5.4800262451171875, 'learning_rate': 9.788240352574439e-05, 'epoch': 0.02}                                                 
{'loss': 4.5077, 'grad_norm': 2.916344404220581, 'learning_rate': 9.680748145759433e-05, 'epoch': 0.03}                                                  
…
